dda_ppo.pth (torch, 74893 bytes, 7 tensors)

net.0.weight f4 [128, 4]
00000000: 366b 023f 6708 f23d bc23 33be f473 e63e
00000010: 79a5 00be 9744 833e 3afc 2abe 795e 733e
00000020: 8c17 1b3f ba5b 20bf 085e db3e cbe7 b0bc
00000030: b112 023f c67a 403d b409 b03e dc10 8ebe
00000040: c467 013f 5e2b 77be 024f 9fbe 89a2 0d3e
00000050: 8545 98be 2f7b 023e a39b febd 70ee 983e
00000060: 61ed 12bf 2c13 eabd a2d2 42be 6640 d4bd
00000070: 2413 7e3e 61c7 eebe 1475 0a3f 654e 1abf
00000080: 52b5 063f c6b4 77be 4c9f 6bbe 3e28 7f3e
00000090: ead7 083e 4229 123f d3c1 363d 1be2 81be
000000a0: 77c3 643e c3ce f2be f4c7 123e 173a ef3e
000000b0: 7c9b ca3e 39f0 05bf 27c7 5a3e c2a8 8d3d
000000c0: 134b ae3e cfb4 1cbf 2794 0ebf 3a08 42be
000000d0: 65a6 f8be a439 343f 61c8 5c3e dbb7 7a3e
000000e0: 075e 9e3e 4645 3b3d 4bb5 cf3e 50de 0bbf
000000f0: 341a 223e 6b45 20bf cfe0 033e dade 5fbe
00000100: 8ec4 a73e 34b6 adbd a625 e23e bda2 e9be
00000110: b321 efbe dd0b 05bd b041 ea3e 002d 703e
00000120: 8235 1c3f 1382 3ebf ee6b 11bf 6e80 f2be
00000130: da78 fabe d1f2 f83e 9ae6 613e cccc f83e
00000140: 9e17 d4be 585b 12bd 6cf4 a03e 588f 26be
00000150: 518a cf3e d83b 98be 62ef 543e f8b0 dabe
00000160: cb72 bbbe acb3 af3e 907c a43c 4d11 903d
00000170: f1f7 f73e 2ba4 b63d 2edb bbbe c647 b7be
00000180: 0ae0 1b3f adb8 70be 539a 47bd 800c 2dbf
00000190: 7f03 debe bfe6 e83e 7755 49bc 1962 acbe
000001a0: 4ed1 a33c 7ecc 79be 9d38 92be eaee b6be
000001b0: 1d4f 18bf 55f4 d5be 374e b73e 49ae b03e
000001c0: 2187 7b3e 2e7e 22bf 8ca6 42be 4585 c4be
000001d0: dacf 063e c110 35bf c0e6 16be 74e5 c1be
000001e0: d1e3 6bbc 1b3e 023e 629b a33d c8e0 d2be
000001f0: 7936 f9be 5d76 bd3c b2e0 e2bd e0e0 afbe
00000200: 7e10 0f3f dd5b d8be b6ae b33e 0fcd 433e
00000210: 84be 0abf 52b3 323f 42a2 71bd 5aab 01be
00000220: 5751 19bf 1915 92be a85d 013e aeed 443b
00000230: 58d7 893e 71e4 2abf 22df 9e3e 354c cbbe
00000240: 05bd 16be 905c bbbd 5d5a c13d 424d 193f
00000250: db07 223f 0f3f 29bf dfb2 e93d 7850 aabe
00000260: c4dd a3bd c856 f6bc 92b3 113f f08a ebbe
00000270: 9156 cf3e 6bc4 843c 657f 073e 28bf b6be
00000280: e574 1e3f d8e5 bebd fde2 993d 134e 0ebf
00000290: 5709 913e 178c c8be 87c7 9fbe f276 e13e
000002a0: 806b 8c3e 2317 18bf d7d8 7cbe e3bd ebbd
000002b0: 7705 e93e 7c3d aebe a06c 5abe 066d a0be
000002c0: 8509 fdbe 6913 023f f2a4 df3e 624d f5be
000002d0: 8fce 943e ddb5 753e 4111 e63d 8c5e 9dbe
000002e0: 7ba2 c73e 1f36 13bc bb0e 0a3e 13d4 01be
000002f0: a768 afbe 358c 763c c10f 85be 27d3 7c3d
00000300: 0548 d73e 2001 3e3e df80 ddbd 6ab3 01be
00000310: 4669 88bc b7d3 acbe aebf 4bbd 826a 903e
00000320: 9cea 1dbf e2f6 df3d 2ebf e43e 80be 7a3e
00000330: 3fc4 cbb9 1c86 9abe 4392 24be 9a4c 11bf
00000340: b0db 9dbe f0a1 cd3e 98c7 b93e a5da 963e
00000350: 78c1 13bf e1d2 4dbd 1e15 debc 8ee6 093f
00000360: e1b4 b83e 3115 4ebd a20d ca3e 16bf c4be
00000370: b9cd e3be d73f 2f3f 679d 07be 296a 44bc
00000380: 3a75 22bf cfc6 2b3f e7c3 f43e c9dd 563e
00000390: 54e1 eabe 4c45 dabe bbc8 a3be eff6 cf3e
000003a0: e3ab df3e ad16 ff3e a280 b63e 4cd6 d2bd
000003b0: f8ad 2e3d eccd 85be 56de 5fbe bcf6 27bf
000003c0: 065e ce3e 1603 5fbe 9ae2 2c3d 4d06 fabe
000003d0: 6075 69be c4a1 19bf a440 07bf d883 d83e
000003e0: ded2 85be 5a7b 1f3f ae0a 4ebe caef 93be
000003f0: 5f8d ccbd 2934 aa3d a8f0 28bd 8e62 0dbf
0.5094484 0.11818009 -0.174941 0.4501034 -0.12563123 0.25638267 -0.1669778 0.23766507
0.60582805 -0.62639964 0.42845178 -0.021594903 0.5080977 0.046992086 0.34382403 -0.27747238
0.5054896 -0.24137637 -0.31114966 0.13831533 -0.2974054 0.12742303 -0.12432029 0.29869413
-0.5739346 -0.11429438 -0.19025663 -0.103638455 0.24811989 -0.4663649 0.540849 -0.6027587
0.5262042 -0.24190053 -0.23009986 0.24917695 0.13363615 0.57094204 0.04461844 -0.25367817
0.22340189 -0.47423372 0.14334089 0.46724007 0.3957175 -0.52319676 0.21365033 0.069169536
0.34041652 -0.6121339 -0.5569481 -0.1894845 -0.4856445 0.7040045 0.21560813 0.24484198
0.30931112 0.04572036 0.40568003 -0.54636097 0.15830308 -0.62605923 0.12878726 -0.21862355
0.32767147 -0.08482018 0.44169348 -0.45631972 -0.46705398 -0.032482017 0.4575324 0.23454666
0.61019146 -0.7441723 -0.5680531 -0.4736361 -0.48920327 0.48622754 0.22060624 0.48593748
-0.41424268 -0.035731643 0.3143648 -0.16265619 0.40535215 -0.29733157 0.20794442 -0.4271314
-0.36611018 0.34316766 0.020078927 0.0703455 0.48431352 0.08918031 -0.36690658 -0.35796946
0.6088873 -0.23507948 -0.04873116 -0.675972 -0.43362042 0.45488545 -0.012288443 -0.33668593
0.019997265 -0.24394414 -0.28558818 -0.35729152 -0.5949572 -0.41787973 0.3580186 0.3450797
0.24563266 -0.63473785 -0.19008845 -0.38382927 0.13165227 -0.7072869 -0.14736462 -0.3787037
-0.014397577 0.12719004 0.07988621 -0.4118712 -0.48674372 0.02312773 -0.110780135 -0.34351254
0.5588454 -0.42257586 0.3509423 0.19121192 -0.54196954 0.6980487 -0.05899263 -0.12663022
-0.5988974 -0.2853172 0.12633383 0.0030048895 0.26922107 -0.66754824 0.31029612 -0.3970658
-0.14720543 -0.09148514 0.094410636 0.5988351 0.63293236 -0.66111845 0.1141107 -0.33264518
-0.08001283 -0.030070677 0.5691463 -0.46004438 0.40495732 0.01620694 0.13232191 -0.35692716
0.61897117 -0.09321183 0.07513998 -0.5558788 0.28327438 -0.3916938 -0.31206915 0.4403606
0.27425766 -0.59410304 -0.24692093 -0.115108274 0.45511982 -0.34031284 -0.213305 -0.31333178
-0.49421325 0.5081087 0.4368053 -0.479106 0.29063842 0.23995157 0.1123376 -0.30736196
0.3899115 -0.008985071 0.13482182 -0.12678556 -0.3425953 0.015048076 -0.25988582 0.061724808
0.42047134 0.18555117 -0.10815596 -0.12666097 -0.01665176 -0.33755276 -0.049743347 0.2820626
-0.6168611 0.10935761 0.4467711 0.24486732 -0.00038865392 -0.30180442 -0.1607142 -0.5675751
-0.3083167 0.4016261 0.3628509 0.29463688 -0.57717085 -0.050249938 -0.027109679 0.53867424
0.360755 -0.05031318 0.39463526 -0.38427037 -0.4449289 0.68456787 -0.13243638 -0.011988201
-0.63460124 0.6710023 0.47805712 0.20983042 -0.45875037 -0.42630994 -0.31989083 0.40618083
0.43685827 0.49821988 0.35645014 -0.1029478 0.04264638 -0.26133668 -0.21862158 -0.6561086
0.4030611 -0.21778521 0.04220829 -0.48832932 -0.22798681 -0.6001246 -0.5283301 0.4228809
-0.2613744 0.62297595 -0.20121261 -0.28893882 -0.09987902 0.0831073 -0.041245133 -0.5522851

net.0.bias f4 [128]
00000000: ed96 f73d 1f8a bcbe ab4c bfbe d7c7 f3be
00000010: e1a6 cc3e eb31 e5be ef9b e83e 0248 88bd
00000020: fc5a f8bd f608 843e 2f8c 91bd 8b68 873e
00000030: 9068 a93e 2ed8 c1be 1d08 ce3d b565 763d
00000040: 3845 1f3d 4e4f dd3d 98c6 773d ab5b 3ebe
00000050: ba83 a5bc 8b89 d43e 25d7 c93e a5d1 82bd
00000060: 1437 02bf 80d2 7d3d 29a7 9ebe 12c9 f13e
00000070: cf33 b1be d3c9 21bd 20d5 b3bd f78c 133e
00000080: 6f49 e43e 5f96 f33d 4fb5 ab3e 8a2e af3e
00000090: 9ab1 d73e 88e2 6fbe e2ab cbbd f6ad 3b3e
000000a0: 42c2 3fbe bb3b 483e d906 19be f3ae bfbe
000000b0: bee1 653e cc9c b33c 805b 353e 0baa 063f
000000c0: 0a5d 9b3e defc ec3e f530 803d 3421 d4be
000000d0: e361 98be e7bb 83be f9d1 e7be 0a65 22be
000000e0: 4034 cabe 7cf8 ccbe 12cc c0be b3db f9be
000000f0: 3d7a b0be 7bc4 773e 0b34 dd3e 80ac 03be
00000100: 698a 4ebe f347 403e f640 9cbe 1e55 5dbe
00000110: 7be6 813e b202 bcbe 5300 c43d 0e47 ed3e
00000120: 7001 5d3c 494d 3c3e b6eb 51be a16c e03d
00000130: d21c 923d af89 443e 8f64 823e fe9d bd3e
00000140: 9370 a6be 1093 a23d 28ce 4cbe 3798 b8be
00000150: 31e6 cc3c 11a8 d4be 13b3 d13e ca1c d13d
00000160: 0af0 b1be 0f22 643e 447e efbe 0440 84be
00000170: 4bc4 6bbd b820 bebe 82a2 99be 2dbd 07be
00000180: c5a5 a73e bb76 e53e 8d14 473e 917c 82be
00000190: fe13 9fbe a07d f23e ffeb 563e c7c4 f8bc
000001a0: c892 123e e4e2 bebe f6ba 67be 5f22 023f
000001b0: b3f5 4abd cd4e ba3c f14b b9be fcbd 98be
000001c0: adc8 62bd 0cbe 5fbe 306a febc a523 173e
000001d0: cba6 08bf f984 d23d 2d0f cbbe 8900 49be
000001e0: fe8e 163e 64b3 e23e 51c2 42be f5c0 87be
000001f0: fece f4be 7864 43be e286 f5be b52f 5abd
0.12089334 -0.36824128 -0.3736318 -0.47613403 0.39971069 -0.44764647 0.45431468 -0.066543594
-0.12126729 0.25788087 -0.07106816 0.26446947 0.33087587 -0.37860245 0.10060141 0.06015559
0.03888437 0.10806142 0.060492128 -0.18589656 -0.020204414 0.41511187 0.39421955 -0.06387643
-0.5086529 0.061968327 -0.30986908 0.47223717 -0.3460984 -0.039499115 -0.08780885 0.14409243
0.44587275 0.118939154 0.33536765 0.34215194 0.42127687 -0.23426259 -0.099448934 0.1832808
-0.18726447 0.19554035 -0.14944018 -0.37438163 0.22449395 0.021925353 0.17710686 0.52603215
0.3034442 0.46286672 0.06259338 -0.41431582 -0.29762182 -0.25729296 -0.45277384 -0.15858856
-0.3949299 -0.4003333 -0.37655693 -0.4880043 -0.3446826 0.24196045 0.43203768 -0.12858772
-0.20169987 0.18777446 -0.3051831 -0.21614501 0.25371155 -0.36720806 0.09570374 0.46343273
0.013489112 0.18388857 -0.20500073 0.10958219 0.07134403 0.19193147 0.25467345 0.370346
-0.32507762 0.07938206 -0.20000517 -0.3605363 0.025012108 -0.41534474 0.40956935 0.10210569
-0.34753448 0.22278617 -0.4677602 -0.2583009 -0.057560246 -0.37134337 -0.30006796 -0.13255759
0.3274366 0.44817147 0.19441433 -0.25485662 -0.3106994 0.4736147 0.20988463 -0.030367268
0.14313805 -0.3728248 -0.22629914 0.50833696 -0.049550723 0.022742653 -0.3619075 -0.29832447
-0.05536716 -0.21849841 -0.031056494 0.14759691 -0.53379506 0.10279269 -0.39660016 -0.1962911
0.14702985 0.4427749 -0.19019438 -0.26514402 -0.47814173 -0.19081295 -0.4795447 -0.053268153

net.2.weight f4 [128, 128]
00000000: 4202 263d 3f0c a8bd 4def 05bd 37b7 c2bd
00000010: cd5c 6dbd 2cd7 27bd 78bd 2b3e c96c aabe
00000020: aa31 7ebc 6dda 80bd 5cb5 f63d 5509 02bd
00000030: f768 d43d da41 94bc 7005 90bd 11c0 583d
00000040: 974b e7bd 941a 783d 4240 1ebd 5a62 c23d
00000050: 5d3a 82bd 9653 9f3c 66f4 ebbc 0e29 a6bd
00000060: f432 c4bd 5076 70bc 2ee6 873c 9837 013e
00000070: 3739 633c 5b94 a1bd fcc4 94bd 5d02 823d
00000080: 67b0 e93d 5e6a 5a3d c190 9c3d 1c22 8a3d
00000090: a0be 173d 2746 00be 26aa 31be a746 45bd
000000a0: 404f ebbd 67ba 823d b8a3 77bd e59a 82bd
000000b0: c127 90bd 447e fabc eed6 c7bd 2232 2f3d
000000c0: 37e8 b5bd 4a1d d93b 70cc b83d 7467 4a3d
000000d0: 5829 ca3a 542f ee3d cd9d babd 8f68 103d
000000e0: 242d 2a3d 1c4d b53d 2d8b 83be 6034 363d
000000f0: 2f88 70bd 68a8 493e 52a4 09bd 255a f3bd
00000100: 3faa 08bc f09c 9fbd c48b d0bd 589e f0bc
00000110: 053e bfbd 0677 9ebc 6dee b13c 4e91 403e
00000120: 5515 1b3c ce73 25bd c4c9 8e3d 8884 1b3e
00000130: 94ac 9a3d 9745 debb eef7 513d b625 53bc
00000140: 1d38 dcbc fa15 743d ae59 e63c 92ac 213d
00000150: 68eb 7bbc d342 29bc 592d d83d 17ec ff3c
00000160: 3ff4 48be 22ec 973a 22fc 523d e673 a2be
00000170: ec53 3cbd 4d15 e73c 6e40 b2bd 2f1e c73d
00000180: d59f 69bd a0cb 41bd 35ef 2a3c 080b 413d
00000190: b439 9d3c 6a21 063e aefd a13d 64fa 583c
000001a0: 2011 3ebd 998d 99bc 0e39 10be 8e76 84bc
000001b0: a716 ef3c 65f9 f83d 0c20 c23c e794 083d
000001c0: a132 16be 6ccf 04bc afc5 0c3c 92cd 79be
000001d0: 50b2 69bd 6035 383d 9119 0abe f345 da3d
000001e0: 0c55 6cbc 4d95 903d 9d55 c3bd 01f6 22be
000001f0: 85ab 4ebe 5e1b e13d a878 e4bd a5cd 14be
00000200: 4d09 f6bd d382 1b3e ff57 093d 1b0a 703d
00000210: 356c eabd 9f3c e33c f7bd d2bc 98e2 89bd
00000220: 90d6 a4bd 9990 82bd 602d e0bc ff62 93bd
00000230: 19e6 33bd d63d c43c 5468 5fbd 9c05 25bc
00000240: 5813 01be 9fec 9abd f917 e33c 81a1 ad3d
00000250: 9fc3 403c 9271 a63c 640c aebd 1574 f53c
00000260: 9c98 9a3d 0215 07bd 90de ea3d 84fa ddbd
00000270: 1221 e03b 833c 453d 2e32 68bc 9bd0 073e
00000280: 8223 a3bd d270 5b3d d645 97bd 026e 37bc
00000290: ed1c a0bd 24af 96bd dc67 583d 22f5 f8bc
000002a0: 7f30 503d c6f3 d8bd 761e 7b3c 8952 653d
000002b0: 6347 e13b a395 59bd d510 bcbc fd4f 8cbd
000002c0: 9f35 a9bc f5f1 3c3c 6a66 833b 0cf0 f53d
000002d0: d0b3 ce3d e419 1d3e d866 d7bb e998 463c
000002e0: 0841 073d 6b80 9a3d 6323 7d3d 0896 d13b
000002f0: 0584 aa3d 39e9 2abd 11c8 b1bb 1af2 4f3d
00000300: 7d5e 96bd d6e0 e2bd a863 12bd 6245 c83d
00000310: 52d2 05be 8336 4a3d 3637 763d 318a 9bbd
00000320: 1117 d3bc e319 74bd ecfc ddba 70ae 84bd
00000330: ecb8 f63b 8159 9fbd df24 d6ba 5046 a6bd
00000340: e399 db3d f8ef 153e 77f7 c23d 3902 e03c
00000350: 655d 3ebd e31a b23d c14e 99bd 8ea7 803d
00000360: 3946 ab3d 846f a8bc 04a3 173e 9e7b bf3d
00000370: 4182 793d 92f8 3fbb 6678 db3d bb46 78bd
00000380: 531e d1bd 45ae 403c ade4 26bb cef5 b03d
00000390: 35e9 773d 4100 ddbd 7bfd f4bb 4293 393c
000003a0: 2447 273d ca06 9a3d a589 edbc 63a7 a8bd
000003b0: 223b fe3d bada 833d 46b3 ef3d 3032 60bb
000003c0: 97e3 863c 77b8 c63d f97b 2e3d 1d43 1abd
000003d0: b4eb d83d f0f3 573c 95c2 c93d 2b6d 4c3d
000003e0: 948c 00be 291c acbc 16c0 39bd 63f2 913c
000003f0: 44a9 a63c 02c3 a33d 18d4 be3d 6ff3 8e3d
0.040529497 -0.08205461 -0.032698918 -0.09507602 -0.05794983 -0.04097669 0.16771495 -0.3328612
-0.0155147705 -0.062916614 0.1204631 -0.03174718 0.10371583 -0.018097807 -0.07032287 0.052917544
-0.112937145 0.060572222 -0.0386355 0.09491415 -0.06358788 0.019449037 -0.028803062 -0.08113299
-0.09580031 -0.014676645 0.01658925 0.12618864 0.013868622 -0.07889625 -0.07264134 0.06348107
0.11410599 0.053324096 0.07644797 0.06744787 0.03704703 -0.12526761 -0.17350063 -0.048163082
-0.11489725 0.0638321 -0.06045887 -0.063772 -0.070388325 -0.030577786 -0.097577915 0.04277242
-0.08882182 0.006625806 0.09023368 0.049415067 0.0015423698 0.11630121 -0.09112129 0.035255965
0.041546956 0.08852598 -0.2569212 0.044483542 -0.058723625 0.19693148 -0.033603974 -0.11882428
-0.008341371 -0.07793605 -0.10182908 -0.02937238 -0.09338001 -0.019343864 0.021720136 0.1880543
0.009465535 -0.040393643 0.069720775 0.15187275 0.07552448 -0.006783198 0.051261835 -0.012887409
-0.026882226 0.05959127 0.028118934 0.039471216 -0.015375949 -0.010330874 0.105555244 0.031240506
-0.19624422 0.0011590759 0.051509984 -0.31729048 -0.04597847 0.0282084 -0.08703695 0.09722554
-0.057037193 -0.047313333 0.010433008 0.04712966 0.019192554 0.13098684 0.07909714 0.0132432915
-0.04640305 -0.018744277 -0.14084265 -0.016169813 0.029185606 0.12156943 0.023696922 0.03334513
-0.14667751 -0.008106094 0.008592053 -0.24394825 -0.057054818 0.044972777 -0.13486315 0.10657873
-0.014424574 0.07059727 -0.09537814 -0.15914156 -0.20182617 0.10991548 -0.11155826 -0.14531572
-0.12013493 0.15186624 0.033531185 0.058603387 -0.1144642 0.027738867 -0.025725348 -0.067326725
-0.08048737 -0.06375236 -0.027365386 -0.071966164 -0.04392061 0.023955267 -0.054542854 -0.010072138
-0.12605035 -0.07564663 0.027721392 0.0847807 0.01176539 0.020317826 -0.08498457 0.029962579
0.07548639 -0.03297902 0.11468232 -0.10838798 0.00683988 0.04815341 -0.01417212 0.1326317
-0.07965757 0.05357439 -0.07386367 -0.0111956615 -0.07818017 -0.07357624 0.052833423 -0.030390326
0.0508275 -0.10593371 0.015327087 0.055986915 0.006874965 -0.05312122 -0.022957245 -0.06851194
-0.020655451 0.011532296 0.0040100114 0.12008676 0.1009289 0.15341908 -0.006573539 0.012121418
0.033021003 0.07544025 0.061801326 0.006396059 0.08325962 -0.041726325 -0.005425461 0.050767995
-0.07342241 -0.1107804 -0.03573957 0.09778859 -0.13068512 0.049368393 0.060111247 -0.07594717
-0.025767835 -0.059595 -0.0016936339 -0.06478584 0.0075293686 -0.077807434 -0.0016337893 -0.0811888
0.10722711 0.14642322 0.095198564 0.02734481 -0.046475787 0.086965345 -0.07485724 0.062819585
0.08363003 -0.020560987 0.1480828 0.0934975 0.060915235 -0.0029292447 0.107163236 -0.06061433
-0.10210862 0.011760299 -0.0025465891 0.086406335 0.060525138 -0.10791064 -0.0074765063 0.011326613
0.04083933 0.07520826 -0.028996298 -0.082350515 0.124136224 0.06438203 0.117041156 -0.0034209602
0.016465945 0.097031526 0.0425987 -0.03766166 0.10591832 0.013180718 0.09851567 0.0499088
-0.12553626 -0.021009522 -0.045349203 0.017815774 0.020344384 0.07996179 0.093177974 0.06980025

net.2.bias f4 [128]
00000000: eb25 b73c 0c10 89bd 9014 7bbd 3ec9 123d
00000010: 73ce a13d f339 00be 753c c83a 2ed5 a63d
00000020: e055 093d 1652 933d 37b3 93bc 63e0 e43b
00000030: 0e10 a7bd fbae ddbb 8a94 2f3d c9c7 1b3d
00000040: c361 9c3d f28d 0c3c 3d59 88bd aacd dabd
00000050: 0ec1 92bd d1af bbbd 171d c6bd 8310 1bbd
00000060: 3ca0 383c 4a8d 823d 3995 6e3d d26c f53b
00000070: 87d3 373d 9988 803c 213a 66bd e6b5 19bd
00000080: 5c87 b5bd 91ae 86bd 6abc 4abb 7152 e53d
00000090: 4c31 27bd 6276 14bd 2579 af3c a759 483d
000000a0: ddb0 50bd 14b8 64bd 141d 663c 9c21 223d
000000b0: 8c09 35bd 5a86 8c3d 524b 693d dc1d acbd
000000c0: 6fed 823d b472 9cbd edf6 85bd dc52 dc3c
000000d0: 784a c5bc 1c0c b13d f22a 9cbb 9aff 13bd
000000e0: ec73 963d 851b 6abd 78ed a43c 0d3e 5f3b
000000f0: 24e4 ef3d 4728 b33d 346e 363d 214f 85bc
00000100: 2167 a63d 97d3 c13c d4bb 0e3c e25a 513d
00000110: efd8 9b3b 5443 2abc cb64 2e3c 17a3 1e3b
00000120: db70 59bd 69d9 103b 17be 443b 57fe c9bd
00000130: fd31 80bd ad29 0c3d d184 c8bc 9b76 dabc
00000140: 228a a43d 5aff 893d 606d 393d e6ce 9a3d
00000150: 6f7c 743d 09fd 8dbd c254 7c3d a57b 84bd
00000160: d6a3 153d 8dea da3c 088c db3c ac6f 8cbb
00000170: 8219 0a3d a05d 153d 8d53 a7bd 6b8d 92bd
00000180: 9796 483d a3cd acbc 8c91 353d d86e 493a
00000190: bec8 093e 624f a9bd 139e 8c3d fef6 563d
000001a0: a82d 1ebd 1e27 9a3d 5136 cd3d 58cf f63c
000001b0: 74aa 2bbd 6880 213d 6a38 a2bc 3b5f 52bd
000001c0: bea3 2d3d d40e 383d 20ed 6abd c52f 673d
000001d0: 76c7 abbb ab63 b53c 4aa6 dcbc 061a 2a3d
000001e0: 6781 213c 1619 d53d 4418 443d e209 073d
000001f0: 3bee 82bc e8ab a43c d726 d43d 34d6 f13c
0.022356948 -0.06692514 -0.061298907 0.03583645 0.07900705 -0.12522106 0.0015276807 0.081461295
0.033529162 0.07193391 -0.018029792 0.006984757 -0.08157359 -0.006765244 0.042866267 0.038032327
0.07635834 0.008578764 -0.06657646 -0.106837586 -0.071657285 -0.09164394 -0.09673517 -0.037857544
0.011268672 0.06374605 0.05824778 0.007489779 0.044879463 0.015690135 -0.05620778 -0.037526987
-0.088637084 -0.06576265 -0.0030935057 0.11197365 -0.040818498 -0.03624571 0.02142007 0.048913624
-0.05094992 -0.055839613 0.014045019 0.039582834 -0.044198558 0.06861563 0.056956597 -0.08404133
0.06392943 -0.076390654 -0.06541238 0.02689498 -0.024083361 0.08644888 -0.0047658617 -0.036132433
0.07346329 -0.05715515 0.020132765 0.0034064085 0.11713436 0.08747917 0.04453869 -0.016273083
0.08125139 0.023660464 0.008711774 0.051112063 0.004756085 -0.010392029 0.010644148 0.0024206096
-0.053086143 0.0022102243 0.003002053 -0.098629646 -0.062595345 0.034219433 -0.024477394 -0.026667884
0.08034159 0.067381576 0.045270324 0.07558994 0.05968898 -0.06933028 0.06160427 -0.06468896
0.0365332 0.02672317 0.02680017 -0.0042857733 0.033715732 0.03646624 -0.08170233 -0.071558796
0.04897174 -0.021094149 0.044328257 0.00076840585 0.13455483 -0.08267094 0.06866088 0.052481644
-0.03861776 0.07526992 0.10020126 0.030128166 -0.041910604 0.0394291 -0.019802291 -0.05136035
0.042392485 0.044936016 -0.057355046 0.05644204 -0.0052422835 0.022142252 -0.026934762 0.041528724
0.009857512 0.104051754 0.047874704 0.03296841 -0.015982738 0.020101503 0.103589706 0.029521085

actor.weight f4 [5, 128]
00000000: 36fd 5cbc 2459 a5bd 0d0e e23d cf88 df3d
00000010: c5c6 b43d 0e36 b0bd f77c 42bd cd24 a0bd
00000020: 7727 e5bc 45eb 503d f66e ec3d e230 aa3d
00000030: 9866 cbbb 2f78 ab3d f167 2d3e c301 4b3e
00000040: 2e7a 823d 773b e33d 0e53 d3bd 3fc7 02be
00000050: 24de bd3c ab9b c3bd c719 84bd 10f9 aabd
00000060: a915 38bd 90c6 323d 8665 0b3d 1083 7abd
00000070: a0f4 3d3e 47af b1bd 2021 333c 3780 1c3d
00000080: 99d9 65be 527f 1cbd 6b68 49be 18eb 9f3d
00000090: 727c a8bd 0661 cbbc 04a5 833c 086e babd
000000a0: 8869 f7bc ca13 3e3e 507c 16bd f572 c43d
000000b0: 05f1 31be c0b7 36be b59f f1bd d0aa bcbc
000000c0: 556a 8abd 6699 35be 7ea9 173d f455 383d
000000d0: 7ddb f4bd d335 443e 5a84 f0bd 109d 36be
000000e0: 2ed9 fbbd be53 123e 6065 21be 9c75 3bbe
000000f0: a2da 323e b2d3 e7bd 8952 273d b6b9 c03d
00000100: 44b2 b43d 5021 4e3c b8ee 1b3d e11c 7dbc
00000110: 5f43 aabd d565 c3bd 0359 5dbe 6797 073c
00000120: 8add 43be 56cf 0abe 1176 4dbd 494e 93bd
00000130: 3998 8a3d 0e3a 923d 7cc1 18bc 4bc1 25be
00000140: 7e21 cebc 487a 603d 22dd b8bd 3653 4a3e
00000150: 51ad 973d e329 0c3d 553d 46bd ede1 66bd
00000160: 173e 1d3e d5f2 72bc d9f5 99bd 42ec 0fbe
00000170: 5ba7 ee3b 2724 c8bb 9937 d6bb 8a74 e53d
00000180: abfe 123c 634b 1e3e 7a0b 963c ce54 af3d
00000190: 6939 913d 9ce1 e4bd d564 5c3e f074 013d
000001a0: 5333 623d 4d68 e1bd be28 a23d 11a2 c83d
000001b0: f29b 213c 0771 f2bd 7cec 013d 21a9 60be
000001c0: bec1 b33d 5152 04bd abae c8bd e672 933c
000001d0: c39e 6bbe 5db5 10be 62ed 0fbe 5ca7 0fbe
000001e0: 0413 453e d6fb ec3d 97fa 0d3e 6c91 29be
000001f0: 8ac5 11bd 26b8 5dbe dea1 d13d ab49 513e
00000200: 5107 613d ca62 f73d bcb8 b23c 9348 ebbd
00000210: adb1 29bb 8a06 cb3d 91c4 5d3d eb6c 833c
00000220: 1a41 14bb f2b5 b8bd 18ba c73d 7201 0dbd
00000230: ce69 b23d 6a24 85bd 9148 11bd aaed 583c
00000240: 41ee 0f3d 8d56 7dbd 7c1d ba3d 517a 9b3d
00000250: c479 50bd c5f3 4a3d 9445 a63d 1924 013e
00000260: 3045 b23c 57f4 833c 1ef6 ee3c b3ab a43d
00000270: 17ce 86bd fe2b ea3d e930 033d bb09 85bb
00000280: 6ad0 cd3c 9317 8a3c 6bc2 19bd ea4c febd
00000290: 2930 e73d eaa9 67bd 34f3 24bd 525f 81bd
000002a0: b6d0 cabc 11c7 f7bc 4822 df3c 519e febd
000002b0: 17ef f0bc cdac 9abd 32c0 7b3c 9987 6dbc
000002c0: be96 f73d e5e6 adbd 2fc6 cebd bb20 b8bc
000002d0: b9dc aa3d 9e3a 953d d2f9 da3c 1530 ddbc
000002e0: 2985 803c 1489 503c 6daf 913c 4a5c b5bb
000002f0: 4d55 12bd 4dec 063c e88c f43c d2ec dabd
00000300: 3e76 98bd 9250 983d 0feb b93d 3fb9 c13c
00000310: d73f 2fbd 680c 7a3b ba0b 28bc ee61 da3d
00000320: 9fed 773d 378e b3bd ac36 a13d 60cc 0c3e
00000330: d786 613d 40b8 d6bd 6427 863c b260 1a3c
00000340: 365e 83bd 0cb2 303d 4572 e23d c76d d93c
00000350: f84f f8bd cb2c 253c 1720 c2bb 119e 25bd
00000360: e89c 91bd 5490 e0bb f538 733d afb2 233d
00000370: cfbf cb3d ad38 9abd 1bb2 9fbc be79 edbc
00000380: c86f 97bd 16e3 84bd f8c5 c3bd ba1f 0abe
00000390: a090 eabb eedc 4dbd ef73 ddbc 058e 6d3c
000003a0: 2edd c73c 1ba7 d6bd 51a4 02be bb84 cebd
000003b0: b466 e03d aa08 1a3c f2d5 d4bc 7e89 db3b
000003c0: 3356 023d 4089 81bd f039 9c3d a83c ca3d
000003d0: c370 323d 8197 bbbc 7415 453d d123 a13c
000003e0: d122 d9ba a509 ecbc 648c 15be fa89 023d
000003f0: c44c a03d ed97 8e3d e617 473d cde8 503d
-0.013488105 -0.08073643 0.11037836 0.10914766 0.08826975 -0.0860406 -0.047482457 -0.07819519
-0.02797292 0.05100562 0.115446016 0.08310105 -0.0062072985 0.083725326 0.16934182 0.19824891
0.0637096 0.110953264 -0.10318576 -0.12771319 0.023177214 -0.09551176 -0.06450229 -0.08348286
-0.04494253 0.043646395 0.034032367 -0.061160147 0.18550348 -0.086760096 0.010933191 0.038208213
-0.22446288 -0.03820736 -0.19668739 0.078085124 -0.08226861 -0.024826538 0.016069897 -0.09103018
-0.030201688 0.18562236 -0.036739647 0.09592239 -0.17377098 -0.17843533 -0.1179804 -0.023030668
-0.067585625 -0.17734298 0.037026875 0.045003846 -0.119559266 0.19161157 -0.11743994 -0.17833352
-0.12297283 0.14289758 -0.15761328 -0.18306583 0.17466214 -0.113196746 0.040850196 0.094104216
0.08823064 0.0125811845 0.038069457 -0.01544878 -0.08313631 -0.09540907 -0.21615987 0.008275843
-0.19127479 -0.13555655 -0.050161425 -0.07192666 0.067673154 0.07139979 -0.009323474 -0.16187017
-0.025162455 0.054804116 -0.09026553 0.19758305 0.07406104 0.034219634 -0.048398335 -0.056367803
0.15355717 -0.0148284035 -0.07517595 -0.14054969 0.007283134 -0.0061078253 -0.0065373895 0.11203869
0.00897185 0.15458445 0.01831602 0.08561097 0.07091028 -0.11175844 0.2152284 0.03160566
0.055224728 -0.11006222 0.07917927 0.09796537 0.00986384 -0.118379645 0.03171967 -0.21939518
0.08777188 -0.032305066 -0.0979894 0.017999124 -0.23009782 -0.14131685 -0.14055398 -0.14028686
0.19245535 0.115714714 0.13865124 -0.1655938 -0.03558878 -0.21652278 0.10235952 0.20438258
0.054938618 0.120793894 0.021816604 -0.11488452 -0.0025893257 0.099133566 0.05414254 0.016043147
-0.0022621811 -0.09019078 0.097522914 -0.034425206 0.08711587 -0.06501086 -0.035469595 0.013240257
0.035139326 -0.06185012 0.09087655 0.075916894 -0.050897375 0.049548883 0.0811874 0.12611426
0.021761507 0.016107721 0.029170092 0.080405615 -0.06582277 0.11434172 0.032029066 -0.004059998
0.025123794 0.016856944 -0.037538927 -0.12417014 0.11288483 -0.056558527 -0.040271 -0.06317009
-0.024757724 -0.03024629 0.027238026 -0.1243254 -0.029410882 -0.075524904 0.015365647 -0.014497661
0.12089299 -0.08491305 -0.10096394 -0.022476545 0.08342881 0.07286571 0.026730452 -0.027000466
0.015688496 0.0127279945 0.017783845 -0.0055346834 -0.03572588 0.008235049 0.029852346 -0.10689701
-0.07444428 0.074372426 0.09078037 0.023647903 -0.04278549 0.0038154367 -0.010256702 0.1066321
0.060529348 -0.0876736 0.07871756 0.13749838 0.055060234 -0.10484362 0.016376205 0.009422468
-0.06414454 0.04313855 0.110569514 0.026541604 -0.12124628 0.01008148 -0.0059242356 -0.040433947
-0.071100056 -0.0068531428 0.05938049 0.039965328 0.09948694 -0.07530341 -0.019494107 -0.028988715
-0.073943675 -0.06488626 -0.09559244 -0.13488665 -0.007158354 -0.050259523 -0.02703282 0.014499192
0.024397459 -0.104810916 -0.12757994 -0.1008391 0.10957089 0.00940148 -0.025980923 0.00669974
0.031820487 -0.063250065 0.07628238 0.098748505 0.04356457 -0.022899391 0.048116162 0.019670399
-0.0016566162 -0.028813193 -0.14604336 0.031869866 0.07827142 0.06962571 0.048606776 0.051003266

actor.bias f4 [5]
00000000: fa8a a63c d096 aebd a54e 3fbd 619d b8bd
00000010: d5bd 28bd
0.020329941 -0.08524859 -0.04670586 -0.09014393 -0.041196663

critic.weight f4 [1, 128]
00000000: 6bac 203e 83e3 403d fd64 c2bd 5a17 a3bd
00000010: d3a4 7ebb cd97 e13d cefc 9e3c 698e 1dbc
00000020: 33d2 c8bc f81b d1bd 814a 9dbd 7aeb 30bd
00000030: c27c 2b3b 0190 3fbd 4e5d 5bbd 048a e3bc
00000040: 9daa 293e e3c8 5f3e a2e4 8bbe db09 2ebe
00000050: 9fa9 023d 3f46 243d 3120 c43d b255 103d
00000060: 105b 73bc a385 743c 26a5 0dbd 9013 283c
00000070: a3ad 15bd 9afa 43bc 61d4 2b3e 5ca1 a1bd
00000080: 97b8 fb3c 7332 e23c 2fb7 b83d 82c3 62bc
00000090: 606a 86be be21 30bb 3cab d83c 2f3b 55bc
000000a0: 46d3 a2be ca56 4ebd 0d25 23bd 5fd2 f53c
000000b0: f1e0 883d 9d5c 323d 95a9 983d e0a1 27be
000000c0: b36c 0dbd 8478 c13d b93f 813c d8b9 e4bd
000000d0: 8a4e bf3b f6ba 9dbd 7042 1c3d f246 a23d
000000e0: f7c2 163d d4f1 9abd 75ca c03d 1c60 133d
000000f0: 9b83 803d 15b0 9e3d 9ce3 303d e06e 92bc
00000100: c88c 523b 2850 35be ee86 2ebd a5f6 4e3d
00000110: 6069 2cbc f91d 853d 99f2 4b3d 25a5 a2bd
00000120: b41e 3c3d 4396 403d d4d6 9fbd d144 9b3d
00000130: e5ea 54bd e2b5 583d 23ef f83d e374 b03c
00000140: 3b0c 04b9 7054 81bd 17a9 26bb e942 0abd
00000150: 6a5f 163d f0db 5c3d 1ed8 a43c fdaa 36bd
00000160: ef3c 7b3e 5f1e 9e3e f9b5 3bbe eb6f b5bd
00000170: 8979 c8bc bae3 e9bd 36b8 9abd a73d 49bd
00000180: 6b13 5a3d 3c34 4fbd d4ee 113d fe76 8d3e
00000190: c2df 473e ac61 e43b b14d a8bd 660d c13b
000001a0: 1935 96bd 67c6 9d3d 1a3e 13bd 6435 2a3e
000001b0: 4c58 44bd 3d61 803c adff 16bd a262 c13d
000001c0: 7700 02bd 514a 493d 3302 843d b006 42bd
000001d0: d629 9a3d 1d61 bb3d 357d ebbc 25f4 6c3d
000001e0: 65be 1bbd 954e 55bd 1511 293d e45a 2f3d
000001f0: 9a0e 58bd 89e5 b83d aa20 4c3a 7e38 49bd
0.15690772 0.047091972 -0.09491918 -0.07963438 -0.0038855567 0.11015282 0.019407656 -0.009616473
-0.024514293 -0.10210413 -0.07680226 -0.043193318 0.002616689 -0.046768192 -0.05355578 -0.027775772
0.1656899 0.21853976 -0.2732287 -0.16995947 0.031900045 0.040106054 0.095764525 0.035237975
-0.014853254 0.01492444 -0.034581326 0.01025857 -0.036542546 -0.011961604 0.16780235 -0.07892105
0.030727668 0.027611947 0.090193145 -0.013840558 -0.26253033 -0.002687558 0.026448838 -0.013014599
-0.31801814 -0.050375737 -0.039830256 0.03000754 0.06683529 0.043545354 0.0745422 -0.16370344
-0.03452749 0.09446815 0.015777456 -0.111682594 0.00583822 -0.077016756 0.038149297 0.07923688
0.036807027 -0.07565656 0.094136156 0.03598033 0.06275102 0.07748429 0.043185815 -0.017875135
0.003212737 -0.17706358 -0.042609148 0.050528187 -0.01052317 0.064998575 0.049791906 -0.07941655
0.04592772 0.0470183 -0.07804647 0.07581485 -0.051981825 0.052907832 0.12154987 0.02154011
-0.00012593057 -0.06314933 -0.0025430375 -0.033755217 0.036712088 0.053920686 0.020122584 -0.04459666
0.24534963 0.30882546 -0.18331136 -0.08859237 -0.024472015 -0.114203885 -0.07554667 -0.049131062
0.053241175 -0.050586924 0.035628155 0.27629846 0.1951895 0.006969651 -0.082179435 0.00589149
-0.07334346 0.07703858 -0.035947897 0.1662193 -0.04793577 0.015671367 -0.036864925 0.09442641
-0.031738725 0.04914314 0.06445732 -0.04736966 0.07527511 0.09149382 -0.028746227 0.057850022
-0.03802337 -0.052076895 0.041276056 0.04281129 -0.0527483 0.09028155 0.000778685 -0.04912614
